utilities/trained/nearest_centroid_classifier.pth (torch, 156165 bytes, 2 tensors)

weight f4 [100, 384]
0	0xbc69d764	-0.0142725445
1	0x3dc26920	0.09492707
2	0xbc794c4d	-0.015215945
3	0x3d15861d	0.036504854
4	0xbdf2084a	-0.11817987
5	0x3d097fba	0.033569075
6	0xbd26ce96	-0.04072436
7	0xbd3541c4	-0.044252172
8	0xbbfc1b45	-0.0076936805
9	0x3d00b4d2	0.031422444
10	0x3afb9aa0	0.0019195862
11	0x3cfda492	0.030962262
12	0x3d4a2183	0.049348366
13	0xbd035c45	-0.032070417
14	0xbba5d591	-0.0050608595
15	0xbd339547	-0.043843534
16	0x3d498503	0.049199115
17	0xbcf308ee	-0.029667344
18	0x3cb122e1	0.021623077
19	0xbd90f4c8	-0.07077938
20	0x3c09f6cc	0.008420657
21	0x3ae27b6f	0.0017279218
22	0x3db5e4da	0.088815406
23	0x3c1ce51e	0.00957611
24	0x3c2a0b5f	0.010378688
25	0xbd67473c	-0.05646442
26	0x3d69c2bd	0.057070483
27	0x3ccac6e4	0.024753042
28	0x3d8b1f80	0.067931175
29	0xbc90d49e	-0.017679509
30	0xbb817419	-0.0039506075
31	0x3af57218	0.0018726019
32	0x3dc27910	0.09495747
33	0xbd0be87d	-0.034157265
34	0x3d5eec3e	0.054424517
35	0x3de7bc24	0.11315182
36	0xbd2e3c95	-0.042538244
37	0x3b308f75	0.0026940976
38	0xbd42d83c	-0.0475695
39	0xbd0f3aee	-0.03496831
40	0xbd4dfb37	-0.050288405
41	0x3cedc9f2	0.02902696
42	0x3d7ea96d	0.062173296
43	0x3d93bf81	0.07214261
44	0xbdad05ad	-0.08448348
45	0x3b1eedbe	0.0024250592
46	0xbc987ea0	-0.018615067
47	0xbc013c3d	-0.007887897
48	0xbc993b3d	-0.018705005
49	0x3bfe1a91	0.007754632
50	0x3dad01ef	0.084476344
51	0xbc0f8b9f	-0.008761316
52	0x3d10f458	0.035389274
53	0xbd9d27c0	-0.07673597
54	0x3d904b11	0.07045568
55	0xbd0b1cd9	-0.03396306
56	0x3cd6c118	0.026215121
57	0x3d4f5c53	0.050625157
58	0x3cfedce2	0.031111185
59	0xbd451bfe	-0.0481224
60	0xbc80d4de	-0.015726503
61	0x3cb03f72	0.021514628
62	0xbcf0de7a	-0.02940296
63	0x3d04b02e	0.03239458
64	0xbc8f042a	-0.01745804
65	0xbd2dc29e	-0.04242193
66	0xbd1d1705	-0.03835203
67	0x3d0524b6	0.032505713
68	0xbd173c27	-0.0369226
69	0x3d1f4bca	0.038890637
70	0xbd649508	-0.05580619
71	0xbc649827	-0.013952292
72	0x3d27af90	0.040938914
73	0x3c86bc3e	0.016447183
74	0xbce9754c	-0.028498314
75	0x3bad2a8f	0.0052846144
76	0x3d7ec76a	0.062201895
77	0xbdb8bcc8	-0.09020382
78	0xbda7fd6a	-0.08202632
79	0xbc5d39f9	-0.013502591
80	0xbccd65c1	-0.025072934
81	0x3d4f437a	0.05060146
82	0x3ce74b86	0.028234255
83	0x3d09973b	0.03359149
84	0xbdae8886	-0.085221335
85	0xbc9197ea	-0.017772634
86	0x3ca4cdf7	0.020117743
87	0xbd54a961	-0.051919345
88	0xbc74fb25	-0.014952456
89	0x3c3c89ec	0.0115074925
90	0x3e32ce8b	0.17461602
91	0x3cc898b1	0.024486871
92	0xbbe68268	-0.0070345886
93	0x3be87d50	0.0070950165
94	0xbcb536c2	-0.022120837
95	0x3cc4a25a	0.024003197
96	0xbd8d7d9b	-0.06908723
97	0x3d69cbdb	0.057079177
98	0x3ce624a7	0.02809365
99	0xbd10c4d7	-0.03534397
100	0x3cb1fe9f	0.021727858
101	0x3ca268ca	0.019825358
102	0x3cd3a5f6	0.025835972
103	0xbce143b6	-0.027498107
104	0xbd573601	-0.052541737
105	0xbc24a4f6	-0.010049095
106	0x3d283b84	0.041072384
107	0xbc99292b	-0.018696388
108	0xbd2056bb	-0.039145213
109	0xbb7e9c5c	-0.0038850522
110	0xbb614c76	-0.003437785
111	0x3cadabc2	0.021200065
112	0x3ddc74da	0.10764475
113	0x3d188d5d	0.03724419
114	0x3e0eefa9	0.1395861
115	0x3d48fe54	0.04907067
116	0xbbc285db	-0.005936367
117	0x3d7b9be6	0.061427973
118	0xbd45e545	-0.04831435
119	0xbdb2cd0d	-0.087305166
120	0x3b73fdfc	0.0037230244
121	0x3c77ade5	0.015117143
122	0x3d83d103	0.0643635
123	0xbd226f78	-0.039657086
124	0xbd00c21b	-0.031435113
125	0xbd18e766	-0.037330054
126	0xbd34c3b7	-0.04413196
127	0x3cad28fa	0.021137703
128	0xbd953ce3	-0.07287004
129	0x3d14ab93	0.03629644
130	0xbd29f58c	-0.041493937
131	0x3d555f82	0.052093036
132	0x3ad48a87	0.0016215601
133	0x3b2d8891	0.0026479105
134	0x3cc3a421	0.023881974
135	0x3e119715	0.1421779
136	0x3bdf6bf4	0.006818289
137	0xbd3fad95	-0.0467964
138	0xbceedbb7	-0.029157503
139	0xbd0d93de	-0.034564845
140	0xbc4ab9ab	-0.012373368
141	0xbcd6dd73	-0.026228642
142	0xbd9b7d4e	-0.07592259
143	0xbd654e94	-0.05598314
144	0xbd4f9779	-0.050681565
145	0x3d0aacfe	0.033856384
146	0x3d6f778a	0.05846361
147	0x3b9ffca6	0.004882413
148	0xbc8a81fd	-0.016907686
149	0x3d2e4a2b	0.0425512
150	0x3d363c55	0.04449113
151	0x3b774b7d	0.0037734204
152	0x3d48767e	0.048941128
153	0xbd233e89	-0.03985456
154	0xbd969411	-0.0735246
155	0x3cf6db31	0.030133815
156	0xbc8606db	-0.01636069
157	0xbd30c18a	-0.043153323
158	0x3cebace4	0.028768964
159	0xbd182f7a	-0.037154652
160	0xbcecedfb	-0.028922072
161	0xbc884812	-0.016635928
162	0xbdc9fe5f	-0.098629706
163	0xbd642bc3	-0.055705797
164	0x3c8c351d	0.01711517
165	0xbd3b9e40	-0.045805216
166	0x3cbeec6c	0.023306094
167	0x3cf525a1	0.02992517
168	0xbd6ee667	-0.058325198
169	0xbcf0ca6c	-0.029393397
170	0xbd843619	-0.06455631
171	0xbbf3b2c9	-0.0074370843
172	0x3daca76f	0.08430373
173	0x3cb4cc5d	0.022070104
174	0xbb9b457f	-0.004738509
175	0x3d473694	0.048636034
176	0x3c7eadf1	0.015544401
177	0xbc93e9e8	-0.018055871
178	0x3d5bb051	0.053634945
179	0x3c85ed4e	0.016348507
180	0xbd79062f	-0.060796913
181	0x3dc14361	0.0943668
182	0x3d5a9344	0.0533631
183	0xbd331016	-0.043716513
184	0xbd54683f	-0.05185723
185	0xbc12eec4	-0.008968059
186	0xbba8bf06	-0.005149725
187	0x3bb0c7af	0.005394898
188	0x3bf274f3	0.0073991953
189	0x3d9e6e59	0.07735891
190	0x3cb9793a	0.022640813
191	0x3c9dadb6	0.01924787
192	0xbc99849e	-0.018739995
193	0x3beebacf	0.007285453
194	0xbc0c3eda	-0.008559907
195	0x3bde7d72	0.0067898566
196	0xbbfbec03	-0.007688047
197	0xbd70c6e1	-0.058783416
198	0xbca84a43	-0.020543223
199	0x3cc53202	0.024071697
200	0xbcdc192d	-0.026867473
201	0xbaf22fdf	-0.0018477401
202	0x3d250bf5	0.040294606
203	0xbd05af69	-0.032637987
204	0x3b1c1dd9	0.0023821502
205	0x3c0be15e	0.008537618
206	0xbd38a7e6	-0.045081995
207	0xbb25c692	-0.002529536
208	0xba82d5a6	-0.0009981885
209	0x3b600d9b	0.0034187797
210	0xbd35199f	-0.044213887
211	0x3da85d1b	0.082208835
212	0xbb874547	-0.0041281315
213	0xbd02e1d6	-0.031953655
214	0xbb77585e	-0.003774188
215	0x3cad3ea5	0.021148035
216	0xbd732c6a	-0.05936853
217	0x3d8fab0e	0.07015048
218	0x3bd94460	0.0066304654
219	0x3d533090	0.051559985
220	0xbc8e5371	-0.017373772
221	0x3b8c4c8a	0.004281585
222	0x3d4281a1	0.047486905
223	0xbd0c5b9a	-0.034267046
224	0x3bcc7d7c	0.006240545
225	0x3cfb8dc6	0.030707251
226	0x3d187ee1	0.037230376
227	0x3c35f20b	0.011105071
228	0x3d19d723	0.037558686
229	0x3ca46dbb	0.020071855
230	0xbd07576b	-0.033042353
231	0x3d94f3cd	0.07273064
232	0x3d870f6e	0.0659474
233	0x3cc48ffc	0.023994438
234	0xbc0ab1c9	-0.008465239
235	0xbdd214ae	-0.102578506
236	0x3cc3a354	0.023881592
237	0xbdc1a0a8	-0.09454471
238	0xbd6a11ed	-0.057146
239	0x3a96bfdd	0.0011501272
240	0xbbe04965	-0.006844687
241	0xbd5942e9	-0.053042326
242	0x3a49e3df	0.0007701497
243	0x3daae1bb	0.08343836
244	0x3c90bcd4	0.017668165
245	0x3c29e2f0	0.0103690475
246	0x3d03757c	0.032094464
247	0x3d6d2318	0.057894796
248	0xbc1a650b	-0.009423505
249	0xbc3d39a5	-0.011549388
250	0x3cba368f	0.022731094
251	0xbd443071	-0.04789776
252	0xbda64d1d	-0.08120177
253	0x3d165004	0.036697403
254	0x3a049663	0.000505781
255	0xbcc6d4b1	-0.024271341

bias f4 [100]
0	0x00000000	0.0
1	0x00000000	0.0
2	0x00000000	0.0
3	0x00000000	0.0
4	0x00000000	0.0
5	0x00000000	0.0
6	0x00000000	0.0
7	0x00000000	0.0
8	0x00000000	0.0
9	0x00000000	0.0
10	0x00000000	0.0
11	0x00000000	0.0
12	0x00000000	0.0
13	0x00000000	0.0
14	0x00000000	0.0
15	0x00000000	0.0
16	0x00000000	0.0
17	0x00000000	0.0
18	0x00000000	0.0
19	0x00000000	0.0
20	0x00000000	0.0
21	0x00000000	0.0
22	0x00000000	0.0
23	0x00000000	0.0
24	0x00000000	0.0
25	0x00000000	0.0
26	0x00000000	0.0
27	0x00000000	0.0
28	0x00000000	0.0
29	0x00000000	0.0
30	0x00000000	0.0
31	0x00000000	0.0
32	0x00000000	0.0
33	0x00000000	0.0
34	0x00000000	0.0
35	0x00000000	0.0
36	0x00000000	0.0
37	0x00000000	0.0
38	0x00000000	0.0
39	0x00000000	0.0
40	0x00000000	0.0
41	0x00000000	0.0
42	0x00000000	0.0
43	0x00000000	0.0
44	0x00000000	0.0
45	0x00000000	0.0
46	0x00000000	0.0
47	0x00000000	0.0
48	0x00000000	0.0
49	0x00000000	0.0
50	0x00000000	0.0
51	0x00000000	0.0
52	0x00000000	0.0
53	0x00000000	0.0
54	0x00000000	0.0
55	0x00000000	0.0
56	0x00000000	0.0
57	0x00000000	0.0
58	0x00000000	0.0
59	0x00000000	0.0
60	0x00000000	0.0
61	0x00000000	0.0
62	0x00000000	0.0
63	0x00000000	0.0
64	0x00000000	0.0
65	0x00000000	0.0
66	0x00000000	0.0
67	0x00000000	0.0
68	0x00000000	0.0
69	0x00000000	0.0
70	0x00000000	0.0
71	0x00000000	0.0
72	0x00000000	0.0
73	0x00000000	0.0
74	0x00000000	0.0
75	0x00000000	0.0
76	0x00000000	0.0
77	0x00000000	0.0
78	0x00000000	0.0
79	0x00000000	0.0
80	0x00000000	0.0
81	0x00000000	0.0
82	0x00000000	0.0
83	0x00000000	0.0
84	0x00000000	0.0
85	0x00000000	0.0
86	0x00000000	0.0
87	0x00000000	0.0
88	0x00000000	0.0
89	0x00000000	0.0
90	0x00000000	0.0
91	0x00000000	0.0
92	0x00000000	0.0
93	0x00000000	0.0
94	0x00000000	0.0
95	0x00000000	0.0
96	0x00000000	0.0
97	0x00000000	0.0
98	0x00000000	0.0
99	0x00000000	0.0
