utilities/trained/nearest_centroid_classifier.pth (torch, 156165 bytes, 2 tensors)

weight f4 [100, 384]
-0.016737487 0.08589513 -0.013551737 0.037500646 -0.116850615 0.03150936 -0.034360215 -0.042860728
-0.00060399645 0.03471476 -0.0042827525 0.037997115 0.047440685 -0.02901775 -0.006585616 -0.04537908
0.04664715 -0.030544586 0.0234361 -0.06881394 0.006973734 0.007412798 0.08918361 0.01688519
0.014734758 -0.05501359 0.06333489 0.029286997 0.06737508 -0.016310941 -0.011636573 0.002384761
0.0931884 -0.03341921 0.058886204 0.11042959 -0.042092662 -0.0025464399 -0.041053463 -0.039977815
-0.044526704 0.026547356 0.06452931 0.07556248 -0.08842239 0.0020273973 -0.022090156 -0.010223303
-0.019278638 0.0061037648 0.08325631 -0.017624302 0.038774975 -0.07197184 0.07080202 -0.041639395
0.025425915 0.0577527 0.031979825 -0.054416735 -0.013864147 0.02156929 -0.025419677 0.03577285
-0.020540785 -0.04547603 -0.035532214 0.03093599 -0.044852387 0.029202165 -0.060131636 -0.0117212385
0.037985824 0.016801162 -0.025939003 0.00019922662 0.06385591 -0.087428585 -0.08052143 -0.007238119
-0.02217539 0.049204677 0.032387245 0.040006146 -0.08949895 -0.0141141955 0.018218152 -0.064858265
-0.019713076 0.009409288 0.17549208 0.025120512 -0.010241326 0.009270642 -0.019028235 0.028019313
-0.07109563 0.052829016 0.037004776 -0.03188197 0.023155816 0.017944608 0.032448497 -0.018699773
-0.059124805 -0.010154499 0.035720542 -0.022152955 -0.039509386 -0.0013397906 -0.005021966 0.022256503
0.10893705 0.031095697 0.14049909 0.049450487 -0.00534437 0.056277458 -0.048114844 -0.08956766
0.0018200444 0.020306358 0.06633898 -0.043471538 -0.0313224 -0.035981253 -0.05080243 0.024385925
-0.071381725 0.038764097 -0.04299001 0.048242122 0.0025311117 0.0042113415 0.025876934 0.14029121
0.013069767 -0.027547782 -0.026053276 -0.03932502 -0.011979175 -0.024594055 -0.08558528 -0.048910387
-0.046983033 0.031100607 0.061850186 0.002915101 -0.016873352 0.04583567 0.04370853 0.002586626
0.047036868 -0.043181524 -0.07425573 0.030384144 -0.020066483 -0.037127994 0.0308544 -0.036374327
-0.029488811 -0.02032876 -0.10067252 -0.05273474 0.012610338 -0.04229278 0.02246333 0.032169532
-0.06467736 -0.03581383 -0.063566975 -0.0016586388 0.083833516 0.020202752 -0.0034413228 0.046088625
0.012131437 -0.021177318 0.05177562 0.015825063 -0.06445718 0.092701085 0.052933633 -0.037458833
-0.051203936 -0.0070215175 -0.0038577935 0.0023776072 0.0039864914 0.08201434 0.02629904 0.012069896
-0.02963747 0.01287514 -0.011962707 0.011714497 -0.011681824 -0.058178306 -0.017901843 0.024479685
-0.026559813 0.000891637 0.041289616 -0.032688133 0.002350394 0.004508645 -0.051057447 -0.0016016992
-0.010896096 0.00070218864 -0.05019915 0.07909728 -0.0010673054 -0.028967034 -0.003091469 0.019436268
-0.05613892 0.07037217 0.009112733 0.046266124 -0.014675648 0.0063106283 0.053468578 -0.03419526
0.0028244243 0.027442856 0.039117765 0.002822611 0.035722267 0.016866256 -0.041292153 0.06766331
0.0690656 0.028151633 -0.004343651 -0.09892068 0.025331782 -0.0960798 -0.054963868 0.00012367479
-0.005131336 -0.054495182 -0.001679808 0.08489383 0.021446437 0.002052465 0.0322035 0.057128638
-0.012588772 -0.007360181 0.024797728 -0.051238876 -0.08688586 0.04223709 -0.0011899227 -0.020515522
00000000: 0e1d 89bc c9e9 af3d 1b08 5ebc 479a 193d
00000010: 604f efbd f50f 013d 4cbd 0cbd bb8e 2fbd
00000020: 8455 1eba 1031 0e3d 5556 8cbb dda2 1b3d
00000030: 2a51 423d a2b6 edbc 27cc d7bb 6adf 39bd
00000040: 1511 3f3d a438 fabc 10fd bf3c 53ee 8cbd
00000050: ec83 e43b 0ee7 f23b e6a5 b63d cf52 8a3c
00000060: 0e6a 713c ee55 61bd b9b5 813d 49eb ef3c
00000070: f2fb 893d 869e 85bc 53a7 3ebc a749 1c3b
00000080: 8fd9 be3d 95e2 08bd a932 713d e928 e23d
00000090: 5b69 2cbd 2ce2 26bb ad27 28bd c7bf 23bd
000000a0: a261 36bd d779 d93c f127 843d 80c0 9a3d
000000b0: cc16 b5bd 15de 043b 6af6 b4bc a47f 27bc
000000c0: 3cee 9dbc 1702 c83b 4982 aa3d d760 90bc
000000d0: 82d2 1e3d f965 93bd a600 913d 128e 2abd
000000e0: 024a d03c 188e 6c3d 47fd 023d 15e4 5ebd
000000f0: 7226 63bc 14b2 b03c ed3c d0bc 8d86 123d
00000100: 2645 a8bc 1345 3abd 3a8a 11bd 796d fd3c
00000110: 23b7 37bd 6139 ef3c 974c 76bd 700a 40bc
00000120: 0697 1b3d 97a2 893c 087e d4bc 7de7 5039
00000130: e3c6 823d c20d b3bd 6be8 a4bd be2d edbb
00000140: 2aa9 b5bc d88a 493d 7da8 043d 7cdd 233d
00000150: 3a4b b7bd 3a3f 67bc 3c3e 953c 69d4 84bd
00000160: 517d a1bc 6a29 1a3c 32b4 333e 88c9 cd3c
00000170: 3ccb 27bc e4e3 173c 1ae1 9bbc c288 e53c
00000180: 969a 91bd 3d63 583d 5292 173d ab96 02bd
00000190: 44b1 bd3c 9200 933c b7e8 043d 4430 99bc
000001a0: da2c 72bd 0e5f 26bc b44f 123d 1d7a b5bc
000001b0: 98d4 21bd ea9b afba 4e8f a4bb 4553 b63c
000001c0: 631a df3d 67bc fe3c fede 0f3e 988c 4a3d
000001d0: d31f afbb 3183 663d 1214 45bd 406f b7bd
000001e0: 8e8e ee3a 8559 a63c bbdc 873d 360f 32bd
000001f0: eb4b 00bd 1461 13bd 3516 50bd fec4 c73c
00000200: 9530 92bd 1ac7 1e3d 4b16 30bd 8899 453d
00000210: 02e1 253b 4bff 893b ddfb d33c 80a8 0f3e
00000220: 9322 563c e3ab e1bc ae6d d5bc 4613 21bd
00000230: 4d44 44bc 7979 c9bc 5647 afbd 4256 48bd
00000240: 4871 40bd b3c6 fe3c 9f56 7d3d 470b 3f3b
00000250: fc39 8abc 2fbe 3b3d b707 333d 6284 293b
00000260: bba9 403d 1cdf 30bd 6313 98bd 2be8 f83c
00000270: 7762 a4bc 8613 18bd 5ec2 fc3c 3ffd 14bd
00000280: 8592 f1bc 8088 a6bc 652d cebd 6200 58bd
00000290: 979b 4e3c 323b 2dbd 0405 b83c 33c4 033d
000002a0: 9075 84bd 86b1 12bd 672f 82bd af66 d9ba
000002b0: e8b0 ab3d 3e80 a53c d187 61bb 6dc7 3c3d
000002c0: efc2 463c 0e7c adbc ac12 543d 90a3 813c
000002d0: 2002 84bd 11da bd3d f0d0 583d 6f6e 19bd
000002e0: 38bb 51bd c214 e6bb 09d3 7cbb a1d1 1b3b
000002f0: 1da1 823b 22f7 a73d 1671 d73c d0c0 453c
00000300: 48ca f2bc 40f2 523c 3bff 43bc 29ee 3f3c
00000310: 1f65 3fbc 604c 6ebd e3a6 92bc 9f89 c83c
00000320: f793 d9bc bfbc 693a 4d1f 293d fee3 05bd
00000330: 1109 1a3b 41bd 933b 9d21 51bd 1bf0 d1ba
00000340: 8a85 32bc 1513 383a a09d 4dbd c1fd a13d
00000350: d4e4 8bba 464c edbc 3e9a 4abb cf38 9f3c
00000360: edf1 65bd 491f 903d 934d 153c 8c81 3d3d
00000370: 2172 70bc 63c9 ce3b de01 5b3d 5410 0cbd
00000380: fa19 393b d7cf e03c f339 203d 8efb 383b
00000390: 8351 123d 1a2b 8a3c f621 29bd 1093 8a3d
000003a0: 4472 8d3d 419e e63c 2f55 8ebb ed96 cabd
000003b0: 9984 cf3c 7cc5 c4bd cb21 61bd b3ae 0139
000003c0: c424 a8bb 5736 5fbd 012d dcba d1dc ad3d
000003d0: 70b0 af3c a682 063b d1e7 033d b8ff 693d
000003e0: 2341 4ebc ac2d f1bb 9b24 cb3c dbdf 51bd
000003f0: 37f1 b1bd cd00 2d3d 2ef7 9bba 2b10 a8bc

bias f4 [100]
0.0 0.0 0.0 0.0 0.0 0.0 0.0 0.0
0.0 0.0 0.0 0.0 0.0 0.0 0.0 0.0
0.0 0.0 0.0 0.0 0.0 0.0 0.0 0.0
0.0 0.0 0.0 0.0 0.0 0.0 0.0 0.0
0.0 0.0 0.0 0.0 0.0 0.0 0.0 0.0
0.0 0.0 0.0 0.0 0.0 0.0 0.0 0.0
0.0 0.0 0.0 0.0 0.0 0.0 0.0 0.0
0.0 0.0 0.0 0.0 0.0 0.0 0.0 0.0
0.0 0.0 0.0 0.0 0.0 0.0 0.0 0.0
0.0 0.0 0.0 0.0 0.0 0.0 0.0 0.0
0.0 0.0 0.0 0.0 0.0 0.0 0.0 0.0
0.0 0.0 0.0 0.0 0.0 0.0 0.0 0.0
0.0 0.0 0.0 0.0
00000000: 0000 0000 0000 0000 0000 0000 0000 0000
00000010: 0000 0000 0000 0000 0000 0000 0000 0000
00000020: 0000 0000 0000 0000 0000 0000 0000 0000
00000030: 0000 0000 0000 0000 0000 0000 0000 0000
00000040: 0000 0000 0000 0000 0000 0000 0000 0000
00000050: 0000 0000 0000 0000 0000 0000 0000 0000
00000060: 0000 0000 0000 0000 0000 0000 0000 0000
00000070: 0000 0000 0000 0000 0000 0000 0000 0000
00000080: 0000 0000 0000 0000 0000 0000 0000 0000
00000090: 0000 0000 0000 0000 0000 0000 0000 0000
000000a0: 0000 0000 0000 0000 0000 0000 0000 0000
000000b0: 0000 0000 0000 0000 0000 0000 0000 0000
000000c0: 0000 0000 0000 0000 0000 0000 0000 0000
000000d0: 0000 0000 0000 0000 0000 0000 0000 0000
000000e0: 0000 0000 0000 0000 0000 0000 0000 0000
000000f0: 0000 0000 0000 0000 0000 0000 0000 0000
00000100: 0000 0000 0000 0000 0000 0000 0000 0000
00000110: 0000 0000 0000 0000 0000 0000 0000 0000
00000120: 0000 0000 0000 0000 0000 0000 0000 0000
00000130: 0000 0000 0000 0000 0000 0000 0000 0000
00000140: 0000 0000 0000 0000 0000 0000 0000 0000
00000150: 0000 0000 0000 0000 0000 0000 0000 0000
00000160: 0000 0000 0000 0000 0000 0000 0000 0000
00000170: 0000 0000 0000 0000 0000 0000 0000 0000
00000180: 0000 0000 0000 0000 0000 0000 0000 0000
